models/lstm_multitask_model.pt (torch, 21891 bytes, 6 tensors)

lstm.weight_ih_l0 f4 [128, 1]
0	0x3de9cfd0	0.1141659
1	0x3e296377	0.16541849
2	0xbd7d73a1	-0.06187785
3	0x3e10a2dd	0.14124627
4	0xbcaf18d6	-0.021374147
5	0x3c727c00	0.014800072
6	0xbdda5242	-0.10660221
7	0x3da94a79	0.08266158
8	0x3e0a2909	0.13492216
9	0xbde10a52	-0.109882966
10	0x3e07c2a4	0.13257843
11	0x3d55658d	0.0520988
12	0x3de0226d	0.10944066
13	0x3b37ab7c	0.0028025797
14	0x3dc59c4e	0.096489534
15	0xbbafa12f	-0.0053597908
16	0x3debe547	0.115183406
17	0x3ba96500	0.005169511
18	0xbda68bf1	-0.081321605
19	0x3cc4ea9d	0.024037654
20	0xbd7d3129	-0.06181446
21	0xbd2a413d	-0.041566122
22	0xbd55ff82	-0.052245624
23	0x3de54c0c	0.111961454
24	0xbdf616d2	-0.120160714
25	0xbd803535	-0.062601484
26	0xbd914080	-0.070923805
27	0xbe0246e7	-0.1272236
28	0xbb43b6e6	-0.0029863655
29	0xbe485a55	-0.19565709
30	0x3e36be56	0.17846045
31	0xbe24df75	-0.16100867
32	0x3dec86dc	0.1154916
33	0x3d445282	0.047930248
34	0xbd9ec08b	-0.077515684
35	0x3db46316	0.08807962
36	0x3d35af11	0.04435641
37	0x3df9ce4d	0.12197552
38	0xba4eb404	-0.0007885101
39	0xbd9d8664	-0.076916486
40	0x3cdaae55	0.026694456
41	0xbce48d39	-0.027899371
42	0x3d5b0415	0.05347069
43	0x3e34beb9	0.1765088
44	0x3da5f374	0.081030756
45	0xbdc9a14b	-0.09845217
46	0x3de9dd09	0.11419112
47	0x3d5129f2	0.051065393
48	0x3d8cc2cb	0.06873091
49	0xbe02d626	-0.12777004
50	0xbe36fa57	-0.17868935
51	0xbdb6e0e6	-0.08929615
52	0xbdedf696	-0.11619298
53	0x3dfe6814	0.12422195
54	0x3d8fe992	0.07026972
55	0x3da2d8c1	0.07951499
56	0x3d99df0b	0.07513245
57	0x3c7f9f97	0.015602014
58	0x3df03f10	0.11730778
59	0xbe160b11	-0.14652659
60	0xbc245506	-0.010030037
61	0xbe11201c	-0.14172405
62	0x3d966528	0.07343513
63	0xbd964a50	-0.07338393
64	0x3d092d5d	0.033490527
65	0xbd67273a	-0.056433894
66	0x3e01d6df	0.12679623
67	0xbe007b4a	-0.12547031
68	0xbdfc37ba	-0.123153165
69	0xbdad6064	-0.08465651
70	0x3e0ebbeb	0.13938873
71	0x3d1b7006	0.03794863
72	0x3e18ec81	0.14933969
73	0xbe2ac6ad	-0.16677351
74	0xbe1e0f87	-0.1543561
75	0xbe216ba6	-0.15763721
76	0xbdc853ce	-0.097816095
77	0x3dbdd1ba	0.09268518
78	0x3d55a548	0.052159578
79	0x3e2ad797	0.16683803
80	0xbd9041d9	-0.070438094
81	0xbdce664d	-0.10078106
82	0x3dc10c50	0.094261765
83	0xbd4f77bb	-0.050651293
84	0x3e027ee7	0.12743722
85	0xbcadf1c6	-0.02123345
86	0x3df881b9	0.12134118
87	0xbe222015	-0.15832551
88	0xbddf709c	-0.109101504
89	0x3d950a0a	0.072773054
90	0x3d6e98ae	0.058251075
91	0xbcc873da	-0.024469305
92	0x3dd26672	0.10273446
93	0x3dcb5193	0.099276684
94	0xbdde643e	-0.108589634
95	0xbdaa32d0	-0.08310473
96	0x3e104e89	0.14092459
97	0xbd2896ae	-0.041159324
98	0xbdaa5e29	-0.08318741
99	0xbe44c862	-0.19217065
100	0xbdab61ac	-0.08368239
101	0x3cbf7d44	0.023375161
102	0xbd33a7f3	-0.04386134
103	0xbe191268	-0.14948428
104	0xbc883a8c	-0.01662948
105	0xbdcf5056	-0.10122745
106	0xbe2f2937	-0.17105566
107	0xbda07f08	-0.07836729
108	0xbe341201	-0.17584993
109	0xbe08da49	-0.13364519
110	0x3e4781f2	0.19483164
111	0x3d5882de	0.05285918
112	0x3d091b9f	0.033473607
113	0xbe3e3e91	-0.18578555
114	0xbdeec4fb	-0.11658665
115	0xbda36717	-0.07978647
116	0x3d408b84	0.047008052
117	0xbe348300	-0.17628098
118	0xbd692016	-0.056915365
119	0xbdf3e13d	-0.11908195
120	0x3ca05180	0.019570112
121	0xbd3fcf1e	-0.04682838
122	0xbd07f9f3	-0.033197355
123	0xbe100728	-0.1406523
124	0xbdd3e867	-0.103470616
125	0xbdfe29b1	-0.12410296
126	0xbd2a9f2d	-0.041655708
127	0xbe1a3a7e	-0.15061375

lstm.weight_hh_l0 f4 [128, 32]
0	0x3e2d5679	0.16927518
1	0xbd5d1c4c	-0.053982064
2	0x3e0790ac	0.13238782
3	0x3d9c0f33	0.076200865
4	0xbe2920fd	-0.1651649
5	0x3dcf8efc	0.10134694
6	0xbd88cfd9	-0.06680269
7	0xbd3f0f25	-0.046645302
8	0xbe00ff67	-0.12597428
9	0xbe1e5531	-0.15462185
10	0x3cf2a553	0.029619848
11	0xbd6f7b2c	-0.058467075
12	0x3d438821	0.047737245
13	0xbe29fe31	-0.16600873
14	0x3de20926	0.11036901
15	0xbdea29ee	-0.11433779
16	0xbd534ff1	-0.05158991
17	0x3d6a0752	0.057135887
18	0x3d9487a3	0.07252433
19	0x3df8ef4d	0.12155018
20	0x3e37e1d0	0.17957234
21	0xbe24e9e3	-0.16104846
22	0x3d67cea0	0.056593537
23	0xbd6126a2	-0.054968484
24	0xbd1e3e8b	-0.038633864
25	0xbde5030c	-0.11182222
26	0x3e0f6f9c	0.1400742
27	0xbe1a7fa0	-0.15087748
28	0x3dbb64d3	0.0915009
29	0x3daa5aff	0.083181374
30	0x3d9f26d7	0.0777108
31	0xbd9abc87	-0.0755549
32	0x3e12b48f	0.1432669
33	0x3d5b4279	0.05353019
34	0x3d1ed510	0.03877741
35	0xbe321e2b	-0.1739432
36	0x3db1db40	0.08684397
37	0xbc1efb0e	-0.009703411
38	0xbd86c19b	-0.06579896
39	0x3e07f8e9	0.13278545
40	0x3cc33d81	0.023833038
41	0xbdf0a636	-0.11750452
42	0xbd953cb9	-0.072869726
43	0x3be05b3e	0.0068468144
44	0x3dede417	0.1161577
45	0xbce4ac37	-0.02791415
46	0xbdabce0f	-0.08388912
47	0xbd95df73	-0.0731801
48	0xbdeaa04d	-0.11456356
49	0x3d3f7380	0.04674101
50	0x3e1b5abd	0.15171333
51	0xbe17d98d	-0.14829083
52	0x3cd9ed8b	0.026602527
53	0x3dddaab7	0.10823577
54	0x3ca3f246	0.020012986
55	0xbda5ac28	-0.08089477
56	0x3ddb7e5d	0.10717461
57	0x3d9d25b7	0.07673209
58	0x3daa66f8	0.08320421
59	0xbc55f1a1	-0.013058097
60	0xbd3e3909	-0.04644111
61	0x3ac08a7a	0.0014689707
62	0xbd41ae66	-0.04728546
63	0xbd8cbabb	-0.068715535
64	0x3dc0c1fc	0.094119996
65	0x3e2cc3ad	0.1687152
66	0xbc78f057	-0.01519402
67	0xbd6ee083	-0.05831958
68	0x3ca939d5	0.02065746
69	0x3c0850e4	0.008320067
70	0x3d11c614	0.035589293
71	0x3cf3bdca	0.029753584
72	0xbe3872c5	-0.18012531
73	0xbd473ea0	-0.04864371
74	0x3e2bbd7a	0.16771498
75	0x3db11561	0.08646656
76	0x3c265c9f	0.0101539185
77	0xbdb60801	-0.088882454
78	0xbdb7fcc0	-0.08983755
79	0xbe34c308	-0.17652524
80	0xbd1ef010	-0.03880316
81	0x3d41772e	0.0472328
82	0x3df9e4cb	0.12201842
83	0x3dceef8a	0.10104282
84	0xbe315e9a	-0.17321244
85	0xbdb443c3	-0.08801987
86	0xbd383303	-0.044970524
87	0x3e1ced07	0.15324794
88	0x3d2f818d	0.04284816
89	0xbd81a893	-0.06330981
90	0x3dbb878b	0.09156712
91	0xbd4605bf	-0.048345324
92	0xbe099c4d	-0.1343853
93	0x3de1fe90	0.11034882
94	0xbdc66afb	-0.09688374
95	0xbd14475f	-0.036200877
96	0xbe1e7971	-0.15476014
97	0x3dca34f0	0.09873378
98	0x3deb0aed	0.11476693
99	0x3daf45ff	0.085582726
100	0xbe1222ba	-0.1427106
101	0xbe482d5d	-0.19548555
102	0xbe207ba7	-0.1567217
103	0x3e1ca0d4	0.15295726
104	0x3dd90498	0.10596579
105	0x3e2d08d4	0.16897899
106	0x3d92ad4d	0.07161961
107	0x3cc828fd	0.024433607
108	0xbcbb1008	-0.022834793
109	0xbe1f35eb	-0.15547912
110	0xbe309cdf	-0.17247342
111	0xbe1556f8	-0.14583957
112	0x3d51fa09	0.051263843
113	0xbd88247d	-0.066475846
114	0xbd5b1d3b	-0.053494673
115	0xbdfbb2b5	-0.12289945
116	0xbc506f96	-0.012721917
117	0xbe14e417	-0.14540134
118	0xbdc9a409	-0.0984574
119	0x3da365b1	0.079783805
120	0xbd946777	-0.07246297
121	0x3e04f0e9	0.12982525
122	0xbd9f39f0	-0.077747226
123	0xbe1a72a1	-0.1508279
124	0xbc247fb0	-0.010040209
125	0xbd845036	-0.064606115
126	0xbd09aec5	-0.03361394
127	0xbe17faac	-0.14841717
128	0x3da9892d	0.08278117
129	0xbde05a94	-0.109547764
130	0x3dd51716	0.10404794
131	0x3d820c20	0.06349969
132	0x3e08d0b4	0.13360864
133	0xbdf655ef	-0.12028109
134	0x3e114389	0.14185919
135	0xbdd0187f	-0.10160922
136	0x3da83f0e	0.08215152
137	0x3e17d1de	0.14826152
138	0xbc2378d1	-0.009977535
139	0x3c4e2537	0.012582115
140	0xbcc904e0	-0.024538457
141	0xbe06d1a2	-0.13165906
142	0x3dcdcb1f	0.10048508
143	0xbe3a71dd	-0.18207498
144	0x3e010e43	0.12603097
145	0x3def9c2b	0.116997086
146	0x3e39cc48	0.18144333
147	0xbcc9e0a5	-0.024643252
148	0xbe22606d	-0.15857096
149	0x3d62ace6	0.05534067
150	0x3db4a35a	0.08820219
151	0xbe4511ce	-0.19245073
152	0xbcd8fd2f	-0.026487915
153	0xbdf7a898	-0.120927036
154	0x3997e0eb	0.0002896854
155	0xbd90009d	-0.07031367
156	0xbd63171c	-0.05544196
157	0xbd93fcdc	-0.072259635
158	0xbe3b54f5	-0.18294127
159	0x3e0510d8	0.12994707
160	0x3e2d4e6d	0.16924448
161	0xbd3dd08c	-0.046341464
162	0xbd234b93	-0.039866995
163	0xbd51148c	-0.051044986
164	0xbe2dd832	-0.16977003
165	0xbe45ae7c	-0.19304842
166	0x3d40f193	0.047105383
167	0xbd9b8ec7	-0.07595592
168	0xbdf67f4d	-0.120359994
169	0x3bf14a2b	0.007363578
170	0xbda38fc6	-0.07986407
171	0xbd9d6344	-0.07684949
172	0xbc7c94b0	-0.015416309
173	0xbd6f2c55	-0.058391888
174	0xbda74a75	-0.081684984
175	0xbd999218	-0.07498568
176	0xbe28e224	-0.16492516
177	0x3e2c6e60	0.1683898
178	0xbdb77efe	-0.08959769
179	0x3cd27404	0.025690086
180	0xbd312c22	-0.04325498
181	0xbbd489b4	-0.006486142
182	0x3e31f204	0.17377478
183	0x3dd1dd0c	0.102472395
184	0xbe304863	-0.17215113
185	0x3db988b5	0.09059278
186	0x3e166941	0.14688589
187	0x3ccfe1b8	0.025376186
188	0x3dce09e5	0.10060481
189	0x3e480706	0.19533929
190	0xbbe1b15c	-0.006887598
191	0x3d682a22	0.056680806
192	0xbe102371	-0.1407602
193	0xbca58bb2	-0.020208213
194	0x3dfe5ca2	0.12420012
195	0x3d980405	0.07422642
196	0xbdc04c5f	-0.09389567
197	0xbdfcf378	-0.123511255
198	0xbe09c7ea	-0.13455167
199	0xbe45c277	-0.19312464
200	0xbe1f5dfe	-0.15563199
201	0xbcc20124	-0.023682185
202	0x3e0cdbef	0.13755773
203	0x3d3ed09f	0.046585675
204	0xbdee56db	-0.1163766
205	0xbe015123	-0.12628607
206	0x3dd6ea58	0.10493916
207	0xbe19243e	-0.14955232
208	0xbb8481d5	-0.0040437975
209	0x3da0d989	0.078539915
210	0xbd9dbd34	-0.07702103
211	0xba229608	-0.0006202166
212	0xbd026485	-0.031834144
213	0xbcc9a285	-0.024613628
214	0xbdda9e4a	-0.106747225
215	0xbe2ece30	-0.17070842
216	0xbe01324b	-0.12616841
217	0xbde38b33	-0.111105345
218	0x3e408ba5	0.1880327
219	0xbd8a8f1a	-0.06765576
220	0xbe0dc0d3	-0.13843088
221	0x3cce97cb	0.025218865
222	0x3d0aa4c1	0.033848528
223	0x3dd797a7	0.10526972
224	0x3e1f3808	0.15548718
225	0x3d9ff5c2	0.078105465
226	0xbe48523f	-0.19562624
227	0x3d16a75a	0.036780693
228	0x3db35fb1	0.08758486
229	0xbd196806	-0.03745272
230	0xbdf9efbd	-0.122039296
231	0x3e41db66	0.1893135
232	0xbd49706c	-0.04917948
233	0xbda3409a	-0.07971306
234	0xbe38d2ce	-0.18049166
235	0xbc5512b2	-0.013004946
236	0x3d6a786b	0.057243746
237	0x3c9335c9	0.017969983
238	0x3c621343	0.013798538
239	0xbdea9042	-0.11453296
240	0xbe3ea96a	-0.18619314
241	0x3cc472e1	0.02398056
242	0x3e10e151	0.14148451
243	0x3da5fd3e	0.08104943
244	0xbda997d6	-0.082809135
245	0xbd34a0a2	-0.044098504
246	0xbdedb37e	-0.11606501
247	0xbd835a50	-0.0641371
248	0x3c3afd87	0.011412985
249	0x3df05716	0.1173536
250	0x3e004a39	0.12528314
251	0xbe3bc50c	-0.18336886
252	0x3e0205ac	0.12697476
253	0xbdd417a4	-0.103560716
254	0x3db28a20	0.087177515
255	0x3e2e65de	0.17031047

lstm.bias_ih_l0 f4 [128]
0	0xbdcab481	-0.0989771
1	0xbe1fc8fc	-0.15604013
2	0x3de1434d	0.10999165
3	0x3d246e8b	0.040144484
4	0xbc808345	-0.015687594
5	0xbe19ddf4	-0.15026075
6	0x3e0dd67c	0.1385135
7	0xbdc40e99	-0.09573097
8	0x3dcc3c80	0.09972477
9	0xb90f09d0	-0.00013641198
10	0x3cd81a02	0.026379589
11	0x3d9463e5	0.07245616
12	0xbcd4c4af	-0.025972692
13	0xbcebb2c5	-0.028771767
14	0x3e259afc	0.16172403
15	0xbe1a5718	-0.15072286
16	0x3dcbf0b5	0.099580206
17	0xbd829ce5	-0.063775815
18	0xbd87e90e	-0.066362485
19	0x3e0eae6f	0.13933729
20	0x3c5fbdda	0.013656104
21	0xbe13ba7d	-0.14426608
22	0x3e13fe72	0.14452532
23	0xbd88c936	-0.06679003
24	0x3e0b6014	0.1361087
25	0xbd93e8fb	-0.07222172
26	0x3e45b4e0	0.1930728
27	0x3d95129e	0.072789416
28	0x3c4e42c8	0.012589164
29	0x3db5728c	0.08859739
30	0xbcbf71c8	-0.023369685
31	0xbdcd2351	-0.10016502
32	0x3df07a80	0.11742115
33	0x3dc92178	0.09820837
34	0xbd21f370	-0.0395388
35	0x3e3fb0b6	0.18719754
36	0xbb8ed4b2	-0.0043588514
37	0xbd9521f2	-0.07281865
38	0xbde4ebe8	-0.11177808
39	0x3e0f71cf	0.14008258
40	0xbd4f95d1	-0.050679985
41	0x3e07f032	0.13275221
42	0xbe1aab69	-0.1510445
43	0xbc1285c1	-0.008943022
44	0xbdcee08e	-0.10101424
45	0x3dab38fd	0.08360479
46	0x3e287625	0.16451319
47	0x3d5c794f	0.053826626
48	0xbd233c0d	-0.03985219
49	0xbe3c221e	-0.1837239
50	0xbdbe1de6	-0.092830464
51	0xbdaa7ac4	-0.08324197
52	0x3e1b7916	0.1518291
53	0xbd98eddc	-0.07467243
54	0x3d5ef982	0.054437168
55	0x3e26c9a6	0.1628786
56	0x3d4044a8	0.046940476
57	0xbe30023b	-0.17188351
58	0x3a332814	0.000683428
59	0xbd0205e2	-0.03174389
60	0x3e0a4517	0.13502918
61	0x3b94afd7	0.0045375633
62	0xbcdd4175	-0.027008751
63	0x3e13e988	0.14444554
64	0x3d7e4c73	0.062084626
65	0x3dcd726b	0.10031589
66	0xbd1ac01b	-0.037780862
67	0x3e0b031a	0.13575402
68	0x3d2db66a	0.04241029
69	0xbd649d5e	-0.05581414
70	0x3d585884	0.05281879
71	0xbdf3629f	-0.11884045
72	0x3cda88e8	0.02667661
73	0x3dcf48af	0.10121285
74	0xbe3e5d91	-0.1859038
75	0xbd9f1514	-0.07767692
76	0x3db7c2b2	0.08972682
77	0xbc88d01f	-0.016700802
78	0xbcdd8dfc	-0.027045242
79	0xba10d895	-0.00055254373
80	0xbdcc6989	-0.09981067
81	0x3e0279e9	0.12741818
82	0xbc4bbffe	-0.012435911
83	0xbdad4bf8	-0.084617555
84	0x3d9778fd	0.073961236
85	0xbe2b4267	-0.16724549
86	0xbd540d32	-0.051770397
87	0x3d1c6f99	0.038192365
88	0xbd14a5a7	-0.03629079
89	0x3da22251	0.079167016
90	0xbe2f8bed	-0.17143221
91	0xbd910364	-0.07080725
92	0xbd5b8942	-0.053597696
93	0x3e3ce7fb	0.18447869
94	0x3d563e55	0.05230554
95	0xbe14fe24	-0.14550072
96	0x3db6c3d8	0.08924073
97	0xbca532e3	-0.020165866
98	0x3e1377af	0.14401124
99	0x3df28868	0.11842424
100	0xbdf2a987	-0.11848741
101	0x3e367bf4	0.17820722
102	0xbd451880	-0.04811907
103	0xbc9ca7bb	-0.019122949
104	0x3d9729e6	0.07381038
105	0x3e4977e1	0.19674636
106	0x3d975985	0.07390121
107	0xbe3c934e	-0.18415567
108	0xbd10b17e	-0.03532552
109	0x3e3de539	0.18544473
110	0xbd2a8b81	-0.041636948
111	0xbdcd6ecc	-0.100308985
112	0xbdf5bfbe	-0.119994625
113	0xbded2841	-0.115799434
114	0xbdd5031a	-0.10400982
115	0x3d81798f	0.063220136
116	0x3d5e6e30	0.0543043
117	0x3e418fa1	0.18902446
118	0x3dd2664a	0.10273416
119	0x3cc0f13f	0.023552535
120	0x3da11d0b	0.07866868
121	0x3dacae18	0.08431643
122	0xbe06eecc	-0.13177031
123	0x3de0fa91	0.10985292
124	0xbdcc6745	-0.099806346
125	0x3e216b09	0.15763487
126	0xbdc1fac9	-0.094716616
127	0x3cc6379e	0.024196442

lstm.bias_hh_l0 f4 [128]
0	0x3c99ff5e	0.018798526
1	0x3d861694	0.06547275
2	0x3c1f5935	0.009725858
3	0xbddbf467	-0.107399754
4	0x3d66a9bf	0.056314226
5	0x3dffd1c5	0.12491182
6	0xbdde82ed	-0.10864816
7	0xbdbf95af	-0.09354722
8	0xbdcb9baf	-0.09941804
9	0xbd84e600	-0.064891815
10	0xbadaa484	-0.001668111
11	0xba93802f	-0.0011253412
12	0x3ca2ca64	0.019871898
13	0xbcd47217	-0.025933309
14	0x3e05a1ff	0.13050078
15	0xbbc1fe5c	-0.0059202146
16	0xbda76385	-0.08173279
17	0xbd84fead	-0.06493888
18	0xbde3cc06	-0.11122899
19	0xbd296ddc	-0.041364536
20	0xbe3b5549	-0.18294252
21	0x3d51bb29	0.05120388
22	0xbe1a0791	-0.15041949
23	0x3db6e1fa	0.0892982
24	0x3dd5c8cd	0.1043869
25	0xbe17cef8	-0.14825046
26	0xbd94a5df	-0.072582
27	0xbdf3ca0f	-0.11903774
28	0x3d8be3b2	0.06830539
29	0x3d629895	0.055321295
30	0xbddf77d9	-0.10911531
31	0x3dc120bf	0.09430074
32	0x3dc0aab8	0.09407562
33	0xbe3467bf	-0.17617701
34	0xbcdd4051	-0.027008208
35	0xbd620720	-0.055182576
36	0xbd3d6289	-0.04623655
37	0x3df3eb05	0.11910061
38	0xbd0d23b6	-0.034457885
39	0xbdd02451	-0.10163177
40	0x3e14c483	0.14528088
41	0xbe0fdad8	-0.14048326
42	0xbd23fc7e	-0.040035717
43	0x3d596c7d	0.053081978
44	0x3e35a312	0.17737988
45	0x3e451625	0.19246729
46	0xbca8969b	-0.020579627
47	0x3d3129b5	0.043252666
48	0xbe098bd4	-0.13432246
49	0xbd5628d7	-0.05228504
50	0xbd833280	-0.064061165
51	0x3d91d488	0.07120615
52	0xbe07fd67	-0.13280259
53	0x3d6fe2e0	0.058565974
54	0x3d9e8bb2	0.077414885
55	0x3e228c68	0.15873873
56	0xbd3f34ff	-0.0466814
57	0x3e143798	0.14474332
58	0xbe15c3e9	-0.14625515
59	0xbcf09b23	-0.02937085
60	0x3db48732	0.08814849
61	0x3d881703	0.06645014
62	0x3d86477d	0.06556604
63	0xbe053cbf	-0.13011454
64	0x3e03f55b	0.12886564
65	0xbe171479	-0.14753903
66	0xbdd112dd	-0.10208676
67	0x3c051c5a	0.008124435
68	0xbe1e75e7	-0.15474664
69	0xbe40db18	-0.18833578
70	0xbe0d7ec1	-0.13817884
71	0x3e265555	0.16243489
72	0x3d71791a	0.058953382
73	0xbd14892d	-0.036263634
74	0xbce268e9	-0.027637916
75	0xbe0d2aca	-0.13785854
76	0xbe407efc	-0.1879844
77	0xbe137223	-0.14399008
78	0xbe44a74c	-0.19204444
79	0x3dc81cd1	0.09771121
80	0xbda89c59	-0.08232946
81	0xbd8827e1	-0.06648231
82	0xbe16ab79	-0.14713849
83	0x3c13e402	0.009026529
84	0xbd3ad68b	-0.04561476
85	0xbe0fd2f6	-0.14045319
86	0x3dc0e0e0	0.094178915
87	0x3e2d7281	0.16938211
88	0xbddc0570	-0.107432246
89	0x3daa3785	0.08311371
90	0xbd4965fd	-0.04916953
91	0xbcb03b2f	-0.021512596
92	0x3dc47f4a	0.09594591
93	0xbc3999ae	-0.011328144
94	0x3e071ee0	0.13195372
95	0x3dc2d4f9	0.095132776
96	0xbdc08f28	-0.09402305
97	0xbdfdf1ef	-0.12399661
98	0xbe4598a5	-0.1929651
99	0x3d9ea626	0.07746534
100	0xbe17c569	-0.148214
101	0xbe0299ea	-0.12754026
102	0xbe04ecd1	-0.12980963
103	0xbe1d54af	-0.15364335
104	0xbdfbe225	-0.12298993
105	0x3e371625	0.17879541
106	0x3df45776	0.11930744
107	0x3e1278ac	0.14303845
108	0xbd846498	-0.06464499
109	0xbd53a6aa	-0.051672615
110	0xbd2965b5	-0.04135676
111	0xbc417f2f	-0.011810108
112	0xbdd9081b	-0.10597249
113	0x3bfc4be2	0.0076994756
114	0xbdf71970	-0.12065399
115	0x3d487076	0.048935376
116	0x3e151959	0.1456045
117	0x3d4d7faa	0.050170578
118	0x3dece459	0.11566991
119	0xbdd6f60b	-0.10496148
120	0xbd2a7317	-0.041613664
121	0xbe00e763	-0.12588267
122	0x3a8f04b0	0.0010911431
123	0xbd4b71b3	-0.04966898
124	0xbda24e4f	-0.079250924
125	0xbe1938d5	-0.14963086
126	0xbdaac133	-0.08337631
127	0x3c375acc	0.011191081

fc_churn.weight f4 [1, 33]
0	0xbc2b4f55	-0.010455926
1	0xbe323b0f	-0.17405342
2	0x3de52063	0.11187818
3	0x3e19193d	0.14951034
4	0xbdb2267e	-0.08698748
5	0xbb246e18	-0.0025090035
6	0x3dc6a726	0.0969985
7	0xbe19d30c	-0.15021914
8	0xbe31ab68	-0.17350543
9	0x3df03ba0	0.117301226
10	0x3c84248b	0.016130706
11	0x3d2b3748	0.041800767
12	0xbdbee67a	-0.09321304
13	0x3c3d695d	0.011560765
14	0x3dc4b57a	0.096049264
15	0xbd82081f	-0.06349205
16	0xbd9e0e04	-0.07717517
17	0xbe162a38	-0.14664543
18	0xbd3872ed	-0.045031477
19	0x3db7cdd5	0.08974806
20	0xbe2fd755	-0.17171986
21	0xbd086578	-0.033299893
22	0x3de69350	0.112585664
23	0xbcf101e5	-0.029419849
24	0xbd9e0655	-0.077160515
25	0xbd0b84ea	-0.034062304
26	0xbdb94c7d	-0.09047792
27	0x38e63530	0.000109771616
28	0xbe3fcbb1	-0.18730046
29	0x3db23d8e	0.08703147
30	0xbccd06c8	-0.025027648
31	0xbb4c60ac	-0.003118555
32	0x3c0107ba	0.007875377

fc_ltv.weight f4 [1, 33]
0	0xbe039180	-0.12848473
1	0xbe107752	-0.14108017
2	0xbddcb4fe	-0.10776709
3	0xbe17dd3f	-0.14830492
4	0xbd8d7d4d	-0.06908665
5	0x3e2169b9	0.15762986
6	0xbdf1e5dd	-0.11811421
7	0xbdfca98e	-0.123370275
8	0xbe26cb85	-0.16288574
9	0xbdde3158	-0.10849255
10	0x3c78bab6	0.015181234
11	0xbdb3c371	-0.08777512
12	0x3cb68792	0.022281442
13	0x3da19099	0.07888908
14	0xbc1e9b73	-0.009680617
15	0x3d72fcc7	0.0593231
16	0x3d7745ed	0.06036942
17	0x3e18eb79	0.14933576
18	0x3c0486db	0.008088793
19	0x3e2fd543	0.17171197
20	0x3de86ed7	0.11349266
21	0x3dd3446b	0.10315784
22	0x3daf38ce	0.085557565
23	0xbe0c4eff	-0.1370201
24	0xbdca606a	-0.09881671
25	0x3d61d401	0.055133823
26	0x3daa90c7	0.08328395
27	0x3e35fdf0	0.1777265
28	0xbd329e82	-0.043608196
29	0xbd566d20	-0.052350163
30	0x3dcdae4f	0.10043012
31	0xbc52063e	-0.012818871
32	0x3e131127	0.14362012
